layer     filters    size              input                output
   0 conv     32  3 x 3 / 1   672 x 672 x   3   ->   672 x 672 x  32 0.780 BF
   1 conv     64  3 x 3 / 2   672 x 672 x  32   ->   336 x 336 x  64 4.162 BF
   2 conv     32  1 x 1 / 1   336 x 336 x  64   ->   336 x 336 x  32 0.462 BF
   3 conv     64  3 x 3 / 1   336 x 336 x  32   ->   336 x 336 x  64 4.162 BF
   4 Shortcut Layer: 1
   5 conv    128  3 x 3 / 2   336 x 336 x  64   ->   168 x 168 x 128 4.162 BF
   6 conv     64  1 x 1 / 1   168 x 168 x 128   ->   168 x 168 x  64 0.462 BF
   7 conv    128  3 x 3 / 1   168 x 168 x  64   ->   168 x 168 x 128 4.162 BF
   8 Shortcut Layer: 5
   9 conv     64  1 x 1 / 1   168 x 168 x 128   ->   168 x 168 x  64 0.462 BF
  10 conv    128  3 x 3 / 1   168 x 168 x  64   ->   168 x 168 x 128 4.162 BF
  11 Shortcut Layer: 8
  12 conv    256  3 x 3 / 2   168 x 168 x 128   ->    84 x  84 x 256 4.162 BF
  13 conv    128  1 x 1 / 1    84 x  84 x 256   ->    84 x  84 x 128 0.462 BF
  14 conv    256  3 x 3 / 1    84 x  84 x 128   ->    84 x  84 x 256 4.162 BF
  15 Shortcut Layer: 12
  16 conv    128  1 x 1 / 1    84 x  84 x 256   ->    84 x  84 x 128 0.462 BF
  17 conv    256  3 x 3 / 1    84 x  84 x 128   ->    84 x  84 x 256 4.162 BF
  18 Shortcut Layer: 15
  19 conv    128  1 x 1 / 1    84 x  84 x 256   ->    84 x  84 x 128 0.462 BF
  20 conv    256  3 x 3 / 1    84 x  84 x 128   ->    84 x  84 x 256 4.162 BF
  21 Shortcut Layer: 18
  22 conv    128  1 x 1 / 1    84 x  84 x 256   ->    84 x  84 x 128 0.462 BF
  23 conv    256  3 x 3 / 1    84 x  84 x 128   ->    84 x  84 x 256 4.162 BF
  24 Shortcut Layer: 21
  25 conv    128  1 x 1 / 1    84 x  84 x 256   ->    84 x  84 x 128 0.462 BF
  26 conv    256  3 x 3 / 1    84 x  84 x 128   ->    84 x  84 x 256 4.162 BF
  27 Shortcut Layer: 24
  28 conv    128  1 x 1 / 1    84 x  84 x 256   ->    84 x  84 x 128 0.462 BF
  29 conv    256  3 x 3 / 1    84 x  84 x 128   ->    84 x  84 x 256 4.162 BF
  30 Shortcut Layer: 27
  31 conv    128  1 x 1 / 1    84 x  84 x 256   ->    84 x  84 x 128 0.462 BF
  32 conv    256  3 x 3 / 1    84 x  84 x 128   ->    84 x  84 x 256 4.162 BF
  33 Shortcut Layer: 30
  34 conv    128  1 x 1 / 1    84 x  84 x 256   ->    84 x  84 x 128 0.462 BF
  35 conv    256  3 x 3 / 1    84 x  84 x 128   ->    84 x  84 x 256 4.162 BF
  36 Shortcut Layer: 33
  37 conv    512  3 x 3 / 2    84 x  84 x 256   ->    42 x  42 x 512 4.162 BF
  38 conv    256  1 x 1 / 1    42 x  42 x 512   ->    42 x  42 x 256 0.462 BF
  39 conv    512  3 x 3 / 1    42 x  42 x 256   ->    42 x  42 x 512 4.162 BF
  40 Shortcut Layer: 37
  41 conv    256  1 x 1 / 1    42 x  42 x 512   ->    42 x  42 x 256 0.462 BF
  42 conv    512  3 x 3 / 1    42 x  42 x 256   ->    42 x  42 x 512 4.162 BF
  43 Shortcut Layer: 40
  44 conv    256  1 x 1 / 1    42 x  42 x 512   ->    42 x  42 x 256 0.462 BF
  45 conv    512  3 x 3 / 1    42 x  42 x 256   ->    42 x  42 x 512 4.162 BF
  46 Shortcut Layer: 43
  47 conv    256  1 x 1 / 1    42 x  42 x 512   ->    42 x  42 x 256 0.462 BF
  48 conv    512  3 x 3 / 1    42 x  42 x 256   ->    42 x  42 x 512 4.162 BF
  49 Shortcut Layer: 46
  50 conv    256  1 x 1 / 1    42 x  42 x 512   ->    42 x  42 x 256 0.462 BF
  51 conv    512  3 x 3 / 1    42 x  42 x 256   ->    42 x  42 x 512 4.162 BF
  52 Shortcut Layer: 49
  53 conv    256  1 x 1 / 1    42 x  42 x 512   ->    42 x  42 x 256 0.462 BF
  54 conv    512  3 x 3 / 1    42 x  42 x 256   ->    42 x  42 x 512 4.162 BF
  55 Shortcut Layer: 52
  56 conv    256  1 x 1 / 1    42 x  42 x 512   ->    42 x  42 x 256 0.462 BF
  57 conv    512  3 x 3 / 1    42 x  42 x 256   ->    42 x  42 x 512 4.162 BF
  58 Shortcut Layer: 55
  59 conv    256  1 x 1 / 1    42 x  42 x 512   ->    42 x  42 x 256 0.462 BF
  60 conv    512  3 x 3 / 1    42 x  42 x 256   ->    42 x  42 x 512 4.162 BF
  61 Shortcut Layer: 58
  62 conv   1024  3 x 3 / 2    42 x  42 x 512   ->    21 x  21 x1024 4.162 BF
  63 conv    512  1 x 1 / 1    21 x  21 x1024   ->    21 x  21 x 512 0.462 BF
  64 conv   1024  3 x 3 / 1    21 x  21 x 512   ->    21 x  21 x1024 4.162 BF
  65 Shortcut Layer: 62
  66 conv    512  1 x 1 / 1    21 x  21 x1024   ->    21 x  21 x 512 0.462 BF
  67 conv   1024  3 x 3 / 1    21 x  21 x 512   ->    21 x  21 x1024 4.162 BF
  68 Shortcut Layer: 65
  69 conv    512  1 x 1 / 1    21 x  21 x1024   ->    21 x  21 x 512 0.462 BF
  70 conv   1024  3 x 3 / 1    21 x  21 x 512   ->    21 x  21 x1024 4.162 BF
  71 Shortcut Layer: 68
  72 conv    512  1 x 1 / 1    21 x  21 x1024   ->    21 x  21 x 512 0.462 BF
  73 conv   1024  3 x 3 / 1    21 x  21 x 512   ->    21 x  21 x1024 4.162 BF
  74 Shortcut Layer: 71
  75 conv    512  1 x 1 / 1    21 x  21 x1024   ->    21 x  21 x 512 0.462 BF
  76 conv   1024  3 x 3 / 1    21 x  21 x 512   ->    21 x  21 x1024 4.162 BF
  77 conv    512  1 x 1 / 1    21 x  21 x1024   ->    21 x  21 x 512 0.462 BF
  78 conv   1024  3 x 3 / 1    21 x  21 x 512   ->    21 x  21 x1024 4.162 BF
  79 conv    512  1 x 1 / 1    21 x  21 x1024   ->    21 x  21 x 512 0.462 BF
  80 conv   1024  3 x 3 / 1    21 x  21 x 512   ->    21 x  21 x1024 4.162 BF
  81 conv     30  1 x 1 / 1    21 x  21 x1024   ->    21 x  21 x  30 0.027 BF
  82 yolo
  83 route  79
  84 conv    256  1 x 1 / 1    21 x  21 x 512   ->    21 x  21 x 256 0.116 BF
  85 upsample            2x    21 x  21 x 256   ->    42 x  42 x 256
  86 route  85 61
  87 conv    256  1 x 1 / 1    42 x  42 x 768   ->    42 x  42 x 256 0.694 BF
  88 conv    512  3 x 3 / 1    42 x  42 x 256   ->    42 x  42 x 512 4.162 BF
  89 conv    256  1 x 1 / 1    42 x  42 x 512   ->    42 x  42 x 256 0.462 BF
  90 conv    512  3 x 3 / 1    42 x  42 x 256   ->    42 x  42 x 512 4.162 BF
  91 conv    256  1 x 1 / 1    42 x  42 x 512   ->    42 x  42 x 256 0.462 BF
  92 conv    512  3 x 3 / 1    42 x  42 x 256   ->    42 x  42 x 512 4.162 BF
  93 conv     30  1 x 1 / 1    42 x  42 x 512   ->    42 x  42 x  30 0.054 BF
  94 yolo
  95 route  91
  96 conv    128  1 x 1 / 1    42 x  42 x 256   ->    42 x  42 x 128 0.116 BF
  97 upsample            2x    42 x  42 x 128   ->    84 x  84 x 128
  98 route  97 36
  99 conv    128  1 x 1 / 1    84 x  84 x 384   ->    84 x  84 x 128 0.694 BF
 100 conv    256  3 x 3 / 1    84 x  84 x 128   ->    84 x  84 x 256 4.162 BF
 101 conv    128  1 x 1 / 1    84 x  84 x 256   ->    84 x  84 x 128 0.462 BF
 102 conv    256  3 x 3 / 1    84 x  84 x 128   ->    84 x  84 x 256 4.162 BF
 103 conv    128  1 x 1 / 1    84 x  84 x 256   ->    84 x  84 x 128 0.462 BF
 104 conv    256  3 x 3 / 1    84 x  84 x 128   ->    84 x  84 x 256 4.162 BF
 105 conv     30  1 x 1 / 1    84 x  84 x 256   ->    84 x  84 x  30 0.108 BF
 106 yolo
Loading weights from ./backup/yolov3-obj1-train_9668.weights...0,1
yolov3-obj1-train
Total BFLOPS 170.448 
Done!
layer     filters    size              input                output
   0 conv     32  3 x 3 / 1   672 x 672 x   3   ->   672 x 672 x  32 0.780 BF
   1 conv     64  3 x 3 / 2   672 x 672 x  32   ->   336 x 336 x  64 4.162 BF
   2 conv     32  1 x 1 / 1   336 x 336 x  64   ->   336 x 336 x  32 0.462 BF
   3 conv     64  3 x 3 / 1   336 x 336 x  32   ->   336 x 336 x  64 4.162 BF
   4 Shortcut Layer: 1
   5 conv    128  3 x 3 / 2   336 x 336 x  64   ->   168 x 168 x 128 4.162 BF
   6 conv     64  1 x 1 / 1   168 x 168 x 128   ->   168 x 168 x  64 0.462 BF
   7 conv    128  3 x 3 / 1   168 x 168 x  64   ->   168 x 168 x 128 4.162 BF
   8 Shortcut Layer: 5
   9 conv     64  1 x 1 / 1   168 x 168 x 128   ->   168 x 168 x  64 0.462 BF
  10 conv    128  3 x 3 / 1   168 x 168 x  64   ->   168 x 168 x 128 4.162 BF
  11 Shortcut Layer: 8
  12 conv    256  3 x 3 / 2   168 x 168 x 128   ->    84 x  84 x 256 4.162 BF
  13 conv    128  1 x 1 / 1    84 x  84 x 256   ->    84 x  84 x 128 0.462 BF
  14 conv    256  3 x 3 / 1    84 x  84 x 128   ->    84 x  84 x 256 4.162 BF
  15 Shortcut Layer: 12
  16 conv    128  1 x 1 / 1    84 x  84 x 256   ->    84 x  84 x 128 0.462 BF
  17 conv    256  3 x 3 / 1    84 x  84 x 128   ->    84 x  84 x 256 4.162 BF
  18 Shortcut Layer: 15
  19 conv    128  1 x 1 / 1    84 x  84 x 256   ->    84 x  84 x 128 0.462 BF
  20 conv    256  3 x 3 / 1    84 x  84 x 128   ->    84 x  84 x 256 4.162 BF
  21 Shortcut Layer: 18
  22 conv    128  1 x 1 / 1    84 x  84 x 256   ->    84 x  84 x 128 0.462 BF
  23 conv    256  3 x 3 / 1    84 x  84 x 128   ->    84 x  84 x 256 4.162 BF
  24 Shortcut Layer: 21
  25 conv    128  1 x 1 / 1    84 x  84 x 256   ->    84 x  84 x 128 0.462 BF
  26 conv    256  3 x 3 / 1    84 x  84 x 128   ->    84 x  84 x 256 4.162 BF
  27 Shortcut Layer: 24
  28 conv    128  1 x 1 / 1    84 x  84 x 256   ->    84 x  84 x 128 0.462 BF
  29 conv    256  3 x 3 / 1    84 x  84 x 128   ->    84 x  84 x 256 4.162 BF
  30 Shortcut Layer: 27
  31 conv    128  1 x 1 / 1    84 x  84 x 256   ->    84 x  84 x 128 0.462 BF
  32 conv    256  3 x 3 / 1    84 x  84 x 128   ->    84 x  84 x 256 4.162 BF
  33 Shortcut Layer: 30
  34 conv    128  1 x 1 / 1    84 x  84 x 256   ->    84 x  84 x 128 0.462 BF
  35 conv    256  3 x 3 / 1    84 x  84 x 128   ->    84 x  84 x 256 4.162 BF
  36 Shortcut Layer: 33
  37 conv    512  3 x 3 / 2    84 x  84 x 256   ->    42 x  42 x 512 4.162 BF
  38 conv    256  1 x 1 / 1    42 x  42 x 512   ->    42 x  42 x 256 0.462 BF
  39 conv    512  3 x 3 / 1    42 x  42 x 256   ->    42 x  42 x 512 4.162 BF
  40 Shortcut Layer: 37
  41 conv    256  1 x 1 / 1    42 x  42 x 512   ->    42 x  42 x 256 0.462 BF
  42 conv    512  3 x 3 / 1    42 x  42 x 256   ->    42 x  42 x 512 4.162 BF
  43 Shortcut Layer: 40
  44 conv    256  1 x 1 / 1    42 x  42 x 512   ->    42 x  42 x 256 0.462 BF
  45 conv    512  3 x 3 / 1    42 x  42 x 256   ->    42 x  42 x 512 4.162 BF
  46 Shortcut Layer: 43
  47 conv    256  1 x 1 / 1    42 x  42 x 512   ->    42 x  42 x 256 0.462 BF
  48 conv    512  3 x 3 / 1    42 x  42 x 256   ->    42 x  42 x 512 4.162 BF
  49 Shortcut Layer: 46
  50 conv    256  1 x 1 / 1    42 x  42 x 512   ->    42 x  42 x 256 0.462 BF
  51 conv    512  3 x 3 / 1    42 x  42 x 256   ->    42 x  42 x 512 4.162 BF
  52 Shortcut Layer: 49
  53 conv    256  1 x 1 / 1    42 x  42 x 512   ->    42 x  42 x 256 0.462 BF
  54 conv    512  3 x 3 / 1    42 x  42 x 256   ->    42 x  42 x 512 4.162 BF
  55 Shortcut Layer: 52
  56 conv    256  1 x 1 / 1    42 x  42 x 512   ->    42 x  42 x 256 0.462 BF
  57 conv    512  3 x 3 / 1    42 x  42 x 256   ->    42 x  42 x 512 4.162 BF
  58 Shortcut Layer: 55
  59 conv    256  1 x 1 / 1    42 x  42 x 512   ->    42 x  42 x 256 0.462 BF
  60 conv    512  3 x 3 / 1    42 x  42 x 256   ->    42 x  42 x 512 4.162 BF
  61 Shortcut Layer: 58
  62 conv   1024  3 x 3 / 2    42 x  42 x 512   ->    21 x  21 x1024 4.162 BF
  63 conv    512  1 x 1 / 1    21 x  21 x1024   ->    21 x  21 x 512 0.462 BF
  64 conv   1024  3 x 3 / 1    21 x  21 x 512   ->    21 x  21 x1024 4.162 BF
  65 Shortcut Layer: 62
  66 conv    512  1 x 1 / 1    21 x  21 x1024   ->    21 x  21 x 512 0.462 BF
  67 conv   1024  3 x 3 / 1    21 x  21 x 512   ->    21 x  21 x1024 4.162 BF
  68 Shortcut Layer: 65
  69 conv    512  1 x 1 / 1    21 x  21 x1024   ->    21 x  21 x 512 0.462 BF
  70 conv   1024  3 x 3 / 1    21 x  21 x 512   ->    21 x  21 x1024 4.162 BF
  71 Shortcut Layer: 68
  72 conv    512  1 x 1 / 1    21 x  21 x1024   ->    21 x  21 x 512 0.462 BF
  73 conv   1024  3 x 3 / 1    21 x  21 x 512   ->    21 x  21 x1024 4.162 BF
  74 Shortcut Layer: 71
  75 conv    512  1 x 1 / 1    21 x  21 x1024   ->    21 x  21 x 512 0.462 BF
  76 conv   1024  3 x 3 / 1    21 x  21 x 512   ->    21 x  21 x1024 4.162 BF
  77 conv    512  1 x 1 / 1    21 x  21 x1024   ->    21 x  21 x 512 0.462 BF
  78 conv   1024  3 x 3 / 1    21 x  21 x 512   ->    21 x  21 x1024 4.162 BF
  79 conv    512  1 x 1 / 1    21 x  21 x1024   ->    21 x  21 x 512 0.462 BF
  80 conv   1024  3 x 3 / 1    21 x  21 x 512   ->    21 x  21 x1024 4.162 BF
  81 conv     30  1 x 1 / 1    21 x  21 x1024   ->    21 x  21 x  30 0.027 BF
  82 yolo
  83 route  79
  84 conv    256  1 x 1 / 1    21 x  21 x 512   ->    21 x  21 x 256 0.116 BF
  85 upsample            2x    21 x  21 x 256   ->    42 x  42 x 256
  86 route  85 61
  87 conv    256  1 x 1 / 1    42 x  42 x 768   ->    42 x  42 x 256 0.694 BF
  88 conv    512  3 x 3 / 1    42 x  42 x 256   ->    42 x  42 x 512 4.162 BF
  89 conv    256  1 x 1 / 1    42 x  42 x 512   ->    42 x  42 x 256 0.462 BF
  90 conv    512  3 x 3 / 1    42 x  42 x 256   ->    42 x  42 x 512 4.162 BF
  91 conv    256  1 x 1 / 1    42 x  42 x 512   ->    42 x  42 x 256 0.462 BF
  92 conv    512  3 x 3 / 1    42 x  42 x 256   ->    42 x  42 x 512 4.162 BF
  93 conv     30  1 x 1 / 1    42 x  42 x 512   ->    42 x  42 x  30 0.054 BF
  94 yolo
  95 route  91
  96 conv    128  1 x 1 / 1    42 x  42 x 256   ->    42 x  42 x 128 0.116 BF
  97 upsample            2x    42 x  42 x 128   ->    84 x  84 x 128
  98 route  97 36
  99 conv    128  1 x 1 / 1    84 x  84 x 384   ->    84 x  84 x 128 0.694 BF
 100 conv    256  3 x 3 / 1    84 x  84 x 128   ->    84 x  84 x 256 4.162 BF
 101 conv    128  1 x 1 / 1    84 x  84 x 256   ->    84 x  84 x 128 0.462 BF
 102 conv    256  3 x 3 / 1    84 x  84 x 128   ->    84 x  84 x 256 4.162 BF
 103 conv    128  1 x 1 / 1    84 x  84 x 256   ->    84 x  84 x 128 0.462 BF
 104 conv    256  3 x 3 / 1    84 x  84 x 128   ->    84 x  84 x 256 4.162 BF
 105 conv     30  1 x 1 / 1    84 x  84 x 256   ->    84 x  84 x  30 0.108 BF
 106 yolo
Loading weights from ./backup/yolov3-obj1-train_9668.weights...
 seen 32 
Total BFLOPS 170.448 
Done!

 seen 32 
Learning Rate: 0.0002, Momentum: 0.9, Decay: 0.0005
Resizing
704 x 704 
 try to allocate workspace = 8388609 * sizeof(float),  CUDA allocate done! 
 try to allocate workspace = 8388609 * sizeof(float),  CUDA allocate done! 
Loaded: 0.000042 seconds
…
